…
2017-12-10 00:23:04,013 INFO - Starting container...
2017-12-10 00:23:04,171 INFO - 
################################################################################

2017-12-10 00:23:04,171 INFO - Run Output:
2017-12-10 00:23:04,440 INFO - Using TensorFlow backend.
2017-12-10 00:23:06,580 INFO - _________________________________________________________________
2017-12-10 00:23:06,581 INFO - Layer (type)                 Output Shape              Param #
2017-12-10 00:23:06,581 INFO - =================================================================
2017-12-10 00:23:06,581 INFO - reshape_1 (Reshape)          (None, 28, 28, 1)         0
2017-12-10 00:23:06,582 INFO - _________________________________________________________________
2017-12-10 00:23:06,582 INFO - conv2d_1 (Conv2D)            (None, 28, 28, 64)        640
2017-12-10 00:23:06,582 INFO - _________________________________________________________________
2017-12-10 00:23:06,582 INFO - activation_1 (Activation)    (None, 28, 28, 64)        0
2017-12-10 00:23:06,582 INFO - _________________________________________________________________
2017-12-10 00:23:06,582 INFO - conv2d_2 (Conv2D)            (None, 28, 28, 64)        16448
2017-12-10 00:23:06,583 INFO - _________________________________________________________________
2017-12-10 00:23:06,583 INFO - activation_2 (Activation)    (None, 28, 28, 64)        0
2017-12-10 00:23:06,583 INFO - _________________________________________________________________
2017-12-10 00:23:06,583 INFO - conv2d_3 (Conv2D)            (None, 28, 28, 64)        4160
2017-12-10 00:23:06,583 INFO - _________________________________________________________________
2017-12-10 00:23:06,584 INFO - activation_3 (Activation)    (None, 28, 28, 64)        0
2017-12-10 00:23:06,584 INFO - _________________________________________________________________
2017-12-10 00:23:06,584 INFO - max_pooling2d_1 (MaxPooling2 (None, 14, 14, 64)        0
2017-12-10 00:23:06,584 INFO - _________________________________________________________________
2017-12-10 00:23:06,584 INFO - dropout_1 (Dropout)          (None, 14, 14, 64)        0
2017-12-10 00:23:06,584 INFO - _________________________________________________________________
2017-12-10 00:23:06,585 INFO - conv2d_4 (Conv2D)            (None, 14, 14, 128)       73856
2017-12-10 00:23:06,585 INFO - _________________________________________________________________
2017-12-10 00:23:06,585 INFO - activation_4 (Activation)    (None, 14, 14, 128)       0
2017-12-10 00:23:06,585 INFO - _________________________________________________________________
2017-12-10 00:23:06,585 INFO - conv2d_5 (Conv2D)            (None, 14, 14, 128)       65664
2017-12-10 00:23:06,585 INFO - _________________________________________________________________
2017-12-10 00:23:06,585 INFO - activation_5 (Activation)    (None, 14, 14, 128)       0
2017-12-10 00:23:06,586 INFO - _________________________________________________________________
2017-12-10 00:23:06,586 INFO - conv2d_6 (Conv2D)            (None, 14, 14, 128)       16512
2017-12-10 00:23:06,586 INFO - _________________________________________________________________
2017-12-10 00:23:06,586 INFO - activation_6 (Activation)    (None, 14, 14, 128)       0
2017-12-10 00:23:06,586 INFO - _________________________________________________________________
2017-12-10 00:23:06,586 INFO - max_pooling2d_2 (MaxPooling2 (None, 7, 7, 128)         0
2017-12-10 00:23:06,586 INFO - _________________________________________________________________
2017-12-10 00:23:06,586 INFO - dropout_2 (Dropout)          (None, 7, 7, 128)         0
2017-12-10 00:23:06,587 INFO - _________________________________________________________________
2017-12-10 00:23:06,587 INFO - conv2d_7 (Conv2D)            (None, 7, 7, 256)         295168
2017-12-10 00:23:06,587 INFO - _________________________________________________________________
2017-12-10 00:23:06,587 INFO - activation_7 (Activation)    (None, 7, 7, 256)         0
2017-12-10 00:23:06,587 INFO - _________________________________________________________________
2017-12-10 00:23:06,587 INFO - conv2d_8 (Conv2D)            (None, 7, 7, 256)         262400
2017-12-10 00:23:06,587 INFO - _________________________________________________________________
2017-12-10 00:23:06,588 INFO - activation_8 (Activation)    (None, 7, 7, 256)         0
2017-12-10 00:23:06,588 INFO - _________________________________________________________________
2017-12-10 00:23:06,588 INFO - conv2d_9 (Conv2D)            (None, 7, 7, 256)         65792
2017-12-10 00:23:06,588 INFO - _________________________________________________________________
2017-12-10 00:23:06,588 INFO - activation_9 (Activation)    (None, 7, 7, 256)         0
2017-12-10 00:23:06,588 INFO - _________________________________________________________________
2017-12-10 00:23:06,588 INFO - max_pooling2d_3 (MaxPooling2 (None, 3, 3, 256)         0
2017-12-10 00:23:06,589 INFO - _________________________________________________________________
2017-12-10 00:23:06,589 INFO - dropout_3 (Dropout)          (None, 3, 3, 256)         0
2017-12-10 00:23:06,589 INFO - _________________________________________________________________
2017-12-10 00:23:06,589 INFO - conv2d_10 (Conv2D)           (None, 3, 3, 512)         1180160
2017-12-10 00:23:06,589 INFO - _________________________________________________________________
2017-12-10 00:23:06,589 INFO - activation_10 (Activation)   (None, 3, 3, 512)         0
2017-12-10 00:23:06,589 INFO - _________________________________________________________________
2017-12-10 00:23:06,590 INFO - conv2d_11 (Conv2D)           (None, 3, 3, 512)         1049088
2017-12-10 00:23:06,590 INFO - _________________________________________________________________
2017-12-10 00:23:06,590 INFO - activation_11 (Activation)   (None, 3, 3, 512)         0
2017-12-10 00:23:06,590 INFO - _________________________________________________________________
2017-12-10 00:23:06,590 INFO - conv2d_12 (Conv2D)           (None, 3, 3, 512)         262656
2017-12-10 00:23:06,590 INFO - _________________________________________________________________
2017-12-10 00:23:06,590 INFO - activation_12 (Activation)   (None, 3, 3, 512)         0
2017-12-10 00:23:06,590 INFO - _________________________________________________________________
2017-12-10 00:23:06,591 INFO - max_pooling2d_4 (MaxPooling2 (None, 1, 1, 512)         0
2017-12-10 00:23:06,591 INFO - _________________________________________________________________
2017-12-10 00:23:06,591 INFO - dropout_4 (Dropout)          (None, 1, 1, 512)         0
2017-12-10 00:23:06,591 INFO - _________________________________________________________________
2017-12-10 00:23:06,591 INFO - flatten_1 (Flatten)          (None, 512)               0
2017-12-10 00:23:06,591 INFO - _________________________________________________________________
2017-12-10 00:23:06,591 INFO - dense_1 (Dense)              (None, 128)               65664
2017-12-10 00:23:06,592 INFO - _________________________________________________________________
2017-12-10 00:23:06,592 INFO - activation_13 (Activation)   (None, 128)               0
2017-12-10 00:23:06,592 INFO - _________________________________________________________________
2017-12-10 00:23:06,592 INFO - dropout_5 (Dropout)          (None, 128)               0
2017-12-10 00:23:06,592 INFO - _________________________________________________________________
2017-12-10 00:23:06,592 INFO - dense_2 (Dense)              (None, 10)                1290
2017-12-10 00:23:06,592 INFO - _________________________________________________________________
2017-12-10 00:23:06,592 INFO - activation_14 (Activation)   (None, 10)                0
2017-12-10 00:23:06,593 INFO - =================================================================
2017-12-10 00:23:06,593 INFO - Total params: 3,359,498
2017-12-10 00:23:06,593 INFO - Trainable params: 3,359,498
2017-12-10 00:23:06,593 INFO - Non-trainable params: 0
2017-12-10 00:23:06,593 INFO - _________________________________________________________________
2017-12-10 00:23:07,186 INFO - Epoch 1/20
…
